data.pth (torch, 7703 bytes, 6 tensors)

l1.weight f4 [8, 108]
0	0x3edff9a3	0.43745145
1	0xbde2b1a7	-0.11069041
2	0xbd88e8fe	-0.06685065
3	0x3e932f86	0.28747195
4	0xbda80372	-0.08203782
5	0x3eae2344	0.3401128
6	0x3eb18922	0.34674937
7	0xbe51d621	-0.2049184
8	0xbf0ed873	-0.55799025
9	0xbe28d69e	-0.1648812
10	0xbe76244f	-0.24037288
11	0x3bcd61f7	0.006267782
12	0x3e8bb2c4	0.27284825
13	0x3f050bf4	0.51971364
14	0x3db4b080	0.08822727
15	0xbf0fac02	-0.5612184
16	0x3f64938d	0.89287645
17	0xbef00d2b	-0.46885046
18	0xbd67dc90	-0.05660683
19	0xbeafe080	-0.34350967
20	0xbd987368	-0.07443887
21	0x3ee64eb1	0.44981912
22	0xbe8a3787	-0.2699549
23	0xbdc3224d	-0.09528027
24	0x3f1e9b21	0.6195546
25	0xbe82c18f	-0.25538298
26	0xbe49b314	-0.19697219
27	0x3f1508fa	0.5821682
28	0x3e91b402	0.28457648
29	0xbeac7949	-0.33686283
30	0xbe9642df	-0.29347894
31	0xbd436751	-0.047705952
32	0x3ea7bd20	0.32761478
33	0xbe682253	-0.22669344
34	0xbe952e6f	-0.2913699
35	0x3f5d3d65	0.86421806
36	0xbe5208df	-0.20511197
37	0xbf50e230	-0.81595135
38	0xbf010196	-0.50393045
39	0xbf0fa702	-0.5611421
40	0xbf22bf12	-0.635728
41	0x3f90ad5a	1.1302903
42	0xbf0fadc2	-0.5612451
43	0xbf0f5786	-0.55992925
44	0xbf28d88a	-0.6595541
45	0x3ef0335b	0.4691418
46	0x3ddb5b7f	0.10710811
47	0xbeab1135	-0.33411565
48	0x3f709590	0.93978214
49	0xbcda7822	-0.026668612
50	0xbf290295	-0.66019565
51	0x3da5f06e	0.08102499
52	0x3e95731f	0.29189393
53	0x3f23d2b0	0.6399336
54	0x3d5acdfe	0.053419106
55	0x3f034260	0.51273155
56	0x3f0bacd9	0.5456062
57	0xbe942934	-0.28937685
58	0x3f566c53	0.8375904
59	0xbe68ee27	-0.22747098
60	0x3e2689fa	0.16263571
61	0x3c415db0	0.011802122
62	0xbe9e4372	-0.30910832
63	0xbdba1b9b	-0.090872966
64	0x3e831ff0	0.25610304
65	0xbeba626f	-0.36403224
66	0x3e5bf947	0.2148181
67	0xbe51d601	-0.20491792
68	0x3f13d500	0.5774689
69	0x3e4300a9	0.1904322
70	0x3e577dd0	0.21044087
71	0xbd24f596	-0.04027327
72	0xbf003173	-0.50075454
73	0x3f399765	0.72496635
74	0x3e18d5d1	0.14925314
75	0x3f5eea2b	0.8707606
76	0x3f2cf9cc	0.6756866
77	0xbd9ea920	-0.07747102
78	0x3eca6b51	0.39535
79	0xbd0eafa5	-0.034835476
80	0xbdd2e6f6	-0.102979586
81	0xbe1f9a8e	-0.15586302
82	0xbee2b32d	-0.44277325
83	0x3f047190	0.5173578
84	0xbf5680ac	-0.8379009
85	0x3d846077	0.06463712
86	0x3ecf6b27	0.40511438
87	0xbe9aae79	-0.30211237
88	0xbdb5de91	-0.08880342
89	0xbeccbb83	-0.3998681
90	0xbefcce42	-0.49376112
91	0xbe0a7a1f	-0.13523148
92	0x3e888172	0.2666126
93	0xbe45c36f	-0.19312833
94	0xbdb0b926	-0.08629064
95	0xbe17509b	-0.14776842
96	0x3e77a77e	0.24184987
97	0x3e36931d	0.17829557
98	0xbe0f6110	-0.1400187
99	0xbe9c94fe	-0.30582422
100	0x3eedb430	0.46426535
101	0x3ee7352a	0.45157748
102	0xbdb637f9	-0.08897395
103	0xbeb660c4	-0.356207
104	0x3f75ed95	0.96065646
105	0xbd077a37	-0.033075538
106	0x3dbd7f4e	0.09252797
107	0x3e04ed51	0.12981154
108	0x3e95fece	0.29295963
109	0x3ed5be32	0.4174667
110	0x3ea90c01	0.3301697
111	0xbe2af0a9	-0.16693367
112	0xbe541263	-0.20710139
113	0xbd94de2a	-0.07268937
114	0xbcb83ab4	-0.02248893
115	0x3e87c613	0.26518306
116	0x3e9bed46	0.30454463
117	0x3ea6bc50	0.32565546
118	0x3ef3e03c	0.47632015
119	0x3e94cfd8	0.29064822
120	0xbea4843a	-0.3213213
121	0x3e45a1a5	0.19299944
122	0x3eb9082a	0.3613904
123	0x3cd9e1c2	0.026596908
124	0xbd60271c	-0.054724798
125	0x3d8722c7	0.0659843
126	0x3e520c64	0.20512539
127	0x3ec7a5b4	0.3899361
128	0x3ef31d0c	0.47483099
129	0xbeee99dc	-0.4660176
130	0x3f31301f	0.6921405
131	0x3f05e098	0.5229583
132	0x3d8f35f8	0.069927156
133	0x3e0828ac	0.13296765
134	0xbeffd63c	-0.49968135
135	0x3e506b0b	0.20353334
136	0x3e298cde	0.16557643
137	0x3dffacf6	0.124841616
138	0x3efa1c2b	0.48849615
139	0xbda23efe	-0.07922171
140	0xbec606aa	-0.3867696
141	0xbd64afaa	-0.05583159
142	0x3edfa1b4	0.43678057
143	0xbe310887	-0.17288409
144	0x3e76b196	0.24091181
145	0x3f97a8dd	1.1848408
146	0x3e83e959	0.25763968
147	0x3f3e1dd4	0.74264264
148	0x3f30b28d	0.69022447
149	0xbf403353	-0.75078315
150	0x3f37a7d1	0.7174044
151	0x3f70ac4e	0.94012916
152	0x3f01a08f	0.5063562
153	0x3efaa6d6	0.4895541
154	0x3e3c6fc0	0.18402004
155	0x3ea4bbc3	0.321745
156	0xbf529cf3	-0.82270736
157	0x3e034049	0.12817492
158	0x3e262c54	0.16227847
159	0x3e56b4ba	0.20967379
160	0xbe596ea7	-0.21233617
161	0xbf1681f2	-0.5879203
162	0x3e947563	0.2899581
163	0xbf01d4a8	-0.5071511
164	0xbedd384c	-0.43207014
165	0x3f08efc5	0.5349086
166	0x3d407247	0.046983983
167	0x3eb18347	0.3467047
168	0x3e47bf66	0.19506606
169	0x3e885af2	0.26631886
170	0x3ec4b747	0.3842108
171	0x3e4dd082	0.2009907
172	0x3d84ce51	0.06484664
173	0x3f12e03c	0.57373405
174	0xbee6b7d6	-0.4506213
175	0x3e9188b1	0.284246
176	0xbe8a9227	-0.2706463
177	0x3ddc68b5	0.10762159
178	0xbe67145f	-0.22566365
179	0xbe177293	-0.147898
180	0x3dcbbb18	0.09947795
181	0xbf07a954	-0.5299275
182	0x3d9a9d56	0.07549541
183	0xbd8f0dc0	-0.069850445
184	0x3e93c93d	0.2886447
185	0x3e708552	0.23488358
186	0xbe99208e	-0.2990765
187	0xbdeeb65c	-0.11655876
188	0x3e86d26d	0.26332417
189	0x3e99a515	0.3000876
190	0x3f72253b	0.9458806
191	0xbee43b2e	-0.445764
192	0x3f8e8d0c	1.1136794
193	0x3ea58508	0.32328057
194	0xbe2546b2	-0.1614025
195	0x3ebb301e	0.36560148
196	0x3e81e1d7	0.25367615
197	0x3f081546	0.5315746
198	0xbf2d967f	-0.67807764
199	0x3df80ea5	0.12112168
200	0x3f000bc5	0.5001796
201	0x3f0ee81b	0.55822915
202	0x3e87ef2b	0.26549658
203	0x3e548a9d	0.20756002
204	0xbdd88b7b	-0.10573479
205	0x3e54e4d0	0.2079041
206	0xbdaf1144	-0.08548215
207	0x3d800125	0.06250218
208	0x3dfcc99e	0.12343143
209	0xbee35e4d	-0.44407883
210	0xbd812883	-0.06306555
211	0xbdc0bce9	-0.09411032
212	0xbf629d15	-0.8852094
213	0x3dffd278	0.124913156
214	0x3f06b153	0.52614325
215	0xbcb70e29	-0.02234562
216	0x3eae9ab4	0.34102404
217	0x3c7fa2c0	0.0156027675
218	0x3f1a1d41	0.6020089
219	0x3eb50670	0.35356474
220	0xbdeae4ba	-0.114694074
221	0x3ea7ef19	0.32799605
222	0x3e935398	0.28774714
223	0xbe428cd5	-0.18999036
224	0xbf503605	-0.8133243
225	0x3e97cff3	0.2965084
226	0xbe5e8965	-0.217321
227	0x3dbf8365	0.093512334
228	0xbdd3e4cc	-0.10346374
229	0x3e1c9b88	0.15293705
230	0x3e9bb01e	0.30407804
231	0xbf22eb96	-0.63640726
232	0xbf22ee2f	-0.6364469
233	0xbe297922	-0.16550115
234	0x3dc9799c	0.09837648
235	0x3e4c564e	0.19954798
236	0x3e5e5c45	0.21714886
237	0x3ee8b954	0.45453894
238	0xbeac30a7	-0.3363087
239	0xbe13fdd0	-0.1445229
240	0x3f3ab5af	0.7293348
241	0xbea494ab	-0.32144675
242	0xbf26d64c	-0.6517074
243	0x3e191740	0.14950275
244	0x3e1fac80	0.15593147
245	0xbe971b8f	-0.29513213
246	0x3f00e211	0.5034495
247	0xbe38fb48	-0.18064606
248	0x3ea36d07	0.3191912
249	0xbeb551d7	-0.35414
250	0xbe65fd4c	-0.22459906
251	0xbf22ed04	-0.6364291
252	0xbe429927	-0.19003735
253	0x3f49f0f5	0.78883296
254	0xbee78044	-0.45215046
255	0xbef74926	-0.48297995

l1.bias f4 [8]
0	0x3f0fa6d8	0.5611396
1	0x3f84e12c	1.0381217
2	0x3f22e47f	0.6362991
3	0x3f7d62cb	0.9897887
4	0x3f840f16	1.0317104
5	0x3f287499	0.65802914
6	0x3f92dcf3	1.1473678
7	0x3f5cf9aa	0.8631846

l2.weight f4 [8, 8]
0	0x3fa533c7	1.2906426
1	0xbe026a41	-0.12735845
2	0x3ec6b8bd	0.3881282
3	0x3f8d94b3	1.1061004
4	0x3f0eb5bf	0.5574607
5	0x3fe0af1d	1.755344
6	0xbfbb86ac	-1.4650474
7	0x3f88dd9d	1.0692631
8	0xbdf1305c	-0.11776802
9	0x3fb19371	1.387312
10	0x3fa301c3	1.2734913
11	0xbd443864	-0.04790534
12	0xbf5a34d3	-0.85236853
13	0x3fade673	1.3585953
14	0x3f4e76a0	0.8064976
15	0xbf9d1da0	-1.2274666
16	0xbf32868a	-0.6973654
17	0x3fa519e3	1.2898525
18	0xbf4ccc72	-0.7999946
19	0x3fa24e95	1.2680231
20	0x3f2b7eff	0.66990656
21	0xbf581ca0	-0.8441868
22	0x3fb8d146	1.4438865
23	0x4004bbd2	2.0739636
24	0xbed3079a	-0.41216737
25	0x3f8b61a6	1.0889175
26	0xbf75912a	-0.9592463
27	0x3fc39a62	1.5281489
28	0x3f8ee6a6	1.1164138
29	0x3dc3f00c	0.0956727
30	0x3f9b04c8	1.2110834
31	0xbf8a4316	-1.0801723
32	0x3fa6c7a7	1.3029679
33	0xbf94342d	-1.1578423
34	0x3fc22957	1.5168866
35	0xbbabba87	-0.0052407417
36	0x3f67096e	0.90248764
37	0x3ed6295d	0.41828433
38	0x3fc94de5	1.5726897
39	0xbf660922	-0.89857686
40	0x3f87b306	1.0601509
41	0xbeef3b80	-0.46725082
42	0x3f88b648	1.0680628
43	0xbf79df28	-0.97606134
44	0x3fdb7e3f	1.7147902
45	0x3f16c2c9	0.5889097
46	0x3e94db3f	0.29073521
47	0xbdf74e7e	-0.12075518
48	0xbf8e8266	-1.1133544
49	0x3f9e4d80	1.2367401
50	0x3ef5e0fd	0.48023215
51	0x3f804f66	1.002423
52	0x3fa08440	1.254036
53	0x3fc68164	1.5508237
54	0xbfcbba89	-1.5916301
55	0xbee2e407	-0.44314596
56	0x3f9a8c03	1.2073978
57	0x3e5da398	0.21644437
58	0x3f8ae537	1.0851201
59	0xbfa7e044	-1.3115315
60	0x3d7770d2	0.06041033
61	0xbedf9d10	-0.43674517
62	0x3ff14cd9	1.8851577
63	0x3fcb0193	1.5859855

l2.bias f4 [8]
0	0x3e849c80	0.2590065
1	0x3ea278cd	0.3173279
2	0x3f8cb60e	1.0993059
3	0x3f3e31c3	0.7429468
4	0x3d4b8867	0.04969063
5	0xbdddac58	-0.108238876
6	0x3edefa48	0.43550324
7	0x3ed3ce43	0.41368303

l3.weight f4 [15, 8]
0	0x3d5efec3	0.05444218
1	0xc00173d5	-2.0226948
2	0x3f08673c	0.53282523
3	0x3f0bfa4b	0.5467879
4	0xbfdc5bc1	-1.7215501
5	0xbf8d7680	-1.1051788
6	0x3f40ac27	0.75262684
7	0xbfd66536	-1.6749637
8	0x3f4d73cc	0.80254817
9	0xc006fe68	-2.1092777
10	0x3f4835a7	0.78206867
11	0xbfa6dc55	-1.303599
12	0xbfdd89f3	-1.7307724
13	0xbfec5aa7	-1.8465165
14	0xbe35d4ec	-0.17757004
15	0x3dad7828	0.084701836
16	0x3f28d5f5	0.6595147
17	0xbfbacf79	-1.4594566
18	0xbf4ce147	-0.80031246
19	0xbf9db464	-1.2320676
20	0x3e6f2b7f	0.23356436
21	0x3ee6a6ac	0.45049036
22	0xb97ee922	-0.00024310176
23	0xbe5abf20	-0.21361971
24	0x3e019d46	0.12657651
25	0xc0244d36	-2.5672126
26	0x3e75fc44	0.24022013
27	0x3f09b135	0.5378602
28	0xbdb4adb0	-0.08822191
29	0x3c19af55	0.009380181
30	0xbf054fc2	-0.52074826
31	0xbe818773	-0.25298652
32	0xbfb42f95	-1.4077021
33	0x3f1db447	0.61603206
34	0x3f1fc9d1	0.6241732
35	0x3f4e56eb	0.80601376
36	0xbf86cc3b	-1.0531076
37	0xbf93dd6b	-1.1551946
38	0xbd2d3958	-0.042291015
39	0xbf765de6	-0.9623703
40	0xbdf33a8e	-0.11876403
41	0x3e89ae53	0.2689081
42	0x3cd9b825	0.026577065
43	0xbf702ed6	-0.93821466
44	0xbff69483	-1.9264072
45	0x3be1c44d	0.006889856
46	0x3f2e32f5	0.68046504
47	0x3d2191a0	0.03944552
48	0x3c2f61ea	0.010704497
49	0x3ee7952b	0.45230994
50	0xbfcc7a4f	-1.5974826
51	0xbf903032	-1.1264708
52	0x3f1c0280	0.60941315
53	0x3e20ce37	0.15703665
54	0xbf98a140	-1.192421
55	0x3e89e5ab	0.26933035
56	0x3f0d32a9	0.55155426
57	0x3e84719b	0.25867924
58	0xc01b1ed7	-2.4237573
59	0xbf034351	-0.5127459
60	0x3da2bc47	0.07946067
61	0x3ee2819c	0.4423951
62	0x3deb1e6d	0.11480413
63	0xbf13c49f	-0.57721895
64	0x3e80ba85	0.25142303
65	0xbf082886	-0.53186834
66	0xbf1bcb89	-0.60857445
67	0x3e3bdcac	0.18345898
68	0x3ef52efe	0.47887415
69	0x3d804f8c	0.06265172
70	0x3f08389b	0.53211373
71	0xbfec1ff5	-1.8447253
72	0xbf831596	-1.0240963
73	0x3f514d4a	0.8175856
74	0xbf7ddb09	-0.99162346
75	0xbcb352a5	-0.021889994
76	0x3e5fed0d	0.21867771
77	0x3ef3dfcf	0.4763169
78	0x3dd4e4d2	0.103952065
79	0xbf099942	-0.5374948
80	0x3e699177	0.22809397
81	0xbe3b22ae	-0.18274948
82	0x3e1c6b70	0.15275359
83	0xbfc015db	-1.500667
84	0xbf70affe	-0.9401854
85	0x3d778514	0.060429648
86	0xbfc56914	-1.5422692
87	0x3f25c9a1	0.64760786
88	0x3ec3e472	0.38260227
89	0x3f31fd73	0.6952736
90	0xbed11e0b	-0.40843233
91	0x3e64a3c2	0.22328094
92	0xbf838420	-1.0274696
93	0xbfec2319	-1.8448211
94	0x3f2d903d	0.67798215
95	0xc000b1e0	-2.0108566
96	0xc0142822	-2.3149495
97	0x3f245ac6	0.6420101
98	0xbda58dfb	-0.08083721
99	0x3b81b38e	0.003958172
100	0x3ef5dbae	0.48019165
101	0xbedf05e6	-0.43559188
102	0xbf924312	-1.1426718
103	0x3ea2238c	0.31667745
104	0xbff67deb	-1.9257177
105	0xbfc3b6f7	-1.5290211
106	0x3f78eca2	0.97236073
107	0x3c172e76	0.009227386
108	0xbf65b6a0	-0.8973179
109	0xbfb1b647	-1.3883752
110	0xbf86dea7	-1.0536698
111	0x3f3ca657	0.73691314
112	0xbf8cf7e8	-1.1013155
113	0xbfc57014	-1.5424829
114	0xbe98b3db	-0.2982472
115	0xbee8ffe1	-0.4550772
116	0x3f39fd02	0.72651684
117	0x3f4a1008	0.7893071
118	0xbf6809c6	-0.90639913
119	0x3f08e2cf	0.5347108

l3.bias f4 [15]
0	0xbea5a682	-0.32353598
1	0x3e9f42cd	0.31105652
2	0x3dad626c	0.08466038
3	0x3e4270ca	0.18988338
4	0x3e37c01d	0.17944379
5	0xbe9e49d0	-0.3091569
6	0x3e9340a4	0.28760254
7	0xbe3149f1	-0.17313363
8	0x3dc4b06d	0.09603963
9	0xbeaaa858	-0.3333156
10	0xbd3b620c	-0.0457478
11	0xbdf48e93	-0.119412564
12	0x3e152a75	0.14566977
13	0x3ef18471	0.47171357
14	0x3d9635f7	0.07334512
